output/avg_fused_embedding_custom_weighted.npy (npy, 827520 bytes, 1 tensors)

array f4 [101, 2048]
00000000: 07c9 92bc 7df6 733c 8798 00bc e409 dfbc
00000010: 02b7 aa3b f0c6 963c e754 bc3c f528 89ba
00000020: 4f3c 65ba 9739 87bb 455c b33b 75b7 b3bc
00000030: b528 cb3a 0352 993c 690f 43ba 411f 123c
00000040: a7ef 323b 5042 823b 73bc ca3a 116f 12bc
00000050: 7872 f7ba c97c b23d 3b3b df38 c6ba 0f3d
00000060: 39c6 d7bc d075 08bb 1502 a93b 1312 8a3c
00000070: aadb 92bc 3b7f cbbb b93a 153d f628 353d
00000080: 09d1 dd3c 7980 77bb ce6d 83bc 3ba8 a9ba
00000090: 90bb c83b 88d7 41bc e933 3fbc 6570 4738
000000a0: 55c9 44bc 2a6b 8439 180d b73c ac7f 4f3c
000000b0: b3b8 3a3b 8da9 c43a ded1 26bc a4f1 b33a
000000c0: 6d18 863d 26ac 4a3c df51 84ba 0f2b 893c
000000d0: b527 81bc 6094 cdbb e779 3a3b a2e8 f73b
000000e0: db6e 6a3b 1228 2bbc 94d7 babc 5595 92bb
000000f0: 7e41 883c 1f96 75bc 938a 353c ba0d a0ba
00000100: 5db9 843c 23de babb 02a2 e2bb 7793 fcbb
00000110: bf00 7bbb c3c5 c8bc d068 e73b 174e 9e3c
00000120: 07ea 1c3b e34d 063d e084 b43c 39a4 733c
00000130: fa33 663d a226 4f39 981e a23c e1fa dcbb
00000140: b36c 8bbb 67f3 b3bb 6b38 13ba 7d04 d53c
00000150: f303 05ba d5a6 95b9 64f5 ae3c 5f02 4cbc
00000160: 4762 f23a 3eb1 2bbb 2ff1 cdbb 8b81 e3bb
00000170: f900 b83b b011 7b3a 6419 b53d 0995 d23b
00000180: 9300 c73c 77be 1d3c 22db e13b ece1 e53a
00000190: 68dd debb afd8 443c e307 183d 731e e53a
000001a0: 2477 c73c a552 893b 1748 17bb ddb8 ddbc
000001b0: d727 323b ca5d beba 4905 6cbb 7460 3b3c
000001c0: 22c8 56bc 97f6 2eba 4192 88bb 8f8b 83bb
000001d0: 6916 c1bc 6acd f03a cc7d 9c3b 37b8 ddbb
000001e0: a22e 64bb 00a8 ce3a b8b4 99bb 03c8 f03b
000001f0: b3d4 8a3b e46b d83c 9513 803c 0724 b33c
00000200: e22d 4839 c568 753c 4081 d63b 5558 293c
00000210: f8fd fabb cc61 2b3c f267 e4ba c4fc 00bc
00000220: 04ac 2b3c a7d2 243c dbad c33c 601b 8438
00000230: 7e09 123d 74ea 75bc 5643 3abc 5ef1 6f3b
00000240: 26f7 aeba 40c5 283c c8c9 4a3c 1086 39bc
00000250: 81f6 07ba c2d7 89bb f8a3 2eba 229a 3eba
00000260: ff28 673b f670 b23b c475 0a3b c3c4 dbbb
00000270: dfbf 473b 8987 243d f160 8b3a 36a2 05b9
00000280: a63d b03b 1987 54b8 a088 a73c e574 46bb
00000290: a41c 74bc a1f3 2a3c ddd9 873b 23e7 9bba
000002a0: e959 013c 6d22 9e36 91e2 8739 b735 963d
000002b0: ce40 ed39 e289 24bb 1331 fa3b 8005 d9bb
000002c0: 8fa8 e73c 6ace 93bc c176 423c 13ff 043c
000002d0: e5bc 863c c9f3 9abc 7f3d 083c 1483 6fbc
000002e0: e7a7 433c 61d5 c8bb 0497 d3bc 7e7e 013d
000002f0: ff98 35bb b3f6 003b 2941 c1bb c3ef e9b9
00000300: 1de2 1c3d 1aa1 82bc 624a bebb 7224 30ba
00000310: 6489 15bc 8840 1fbc e459 793c a9e1 bf3b
00000320: ded8 a83d 996b da3a 1ff7 543c c767 7e3b
00000330: ad05 293c f0e9 1cbc 2234 ffb9 7ea4 8f3b
00000340: c91a 25b9 682e 133d fe3d b73b 4850 8f3a
00000350: c1f4 edbb 4d08 b5bc b8c5 debb 6ab9 0a3a
00000360: 3e43 31bb 53df cb3a 5746 babb 5346 14bb
00000370: f662 93bc c61b 933c 6150 9c3c b37a a4bb
00000380: a527 6abb ef8b 1cbc 8112 b03c 7565 933c
00000390: ba74 a6ba 19e1 d53a f360 393b 036c 82bc
000003a0: 319d 88ba 4e29 4abc de43 5c3c c164 9a3b
000003b0: 0b55 ed3b a412 f03b 5a8e ac3b c8f0 babb
000003c0: 6462 f1ba 2d82 0dbb b8f2 39bc af5a 99bc
000003d0: 5006 933c af8e 003c 9995 883c 075a 863c
000003e0: 9855 b53a e6e0 08bc 5648 ad3b 50b8 3e3d
000003f0: 186a a93b ad9b f3bb fb79 013d c3dc c93c
-0.017918123 0.01489031 -0.007848865 -0.027226396 0.0052098045 0.018405408 0.022989703 -0.0010464477
-0.00087446434 -0.0041267383 0.005473646 -0.021938065 0.0015499803 0.018715864 -0.0007440956 0.008918584
0.0027303488 0.00397519 0.0015467539 -0.008937613 -0.0018878719 0.08715207 0.00010644501 0.03509023
-0.026339637 -0.0020822175 0.005157719 0.016854322 -0.01792701 -0.0062102354 0.036432955 0.044228517
0.027077215 -0.0037765785 -0.01604357 -0.0012943813 0.006125875 -0.011831172 -0.011670091 4.7549973e-05
-0.012010892 0.00025256845 0.02234511 0.012664717 0.0028491437 0.0015004143 -0.010181872 0.0013728631
0.065476276 0.012370145 -0.00100952 0.016744165 -0.015766004 -0.006273791 0.0028454007 0.007565574
0.0035771641 -0.010446565 -0.022807874 -0.004473368 0.016632792 -0.014989405 0.011080402 -0.0012211122
0.01620167 -0.0057027503 -0.0069162855 -0.007708009 -0.0038300005 -0.024508363 0.007062055 0.019324346
0.0023943202 0.032789122 0.022036016 0.014870697 0.056201912 0.0001975545 0.019789979 -0.0067437743
-0.0042549013 -0.0054916623 -0.0005616012 0.026003117 -0.0005074136 -0.00028543794 0.021357246 -0.012451737
0.0018492424 -0.0026198174 -0.006284855 -0.006942933 0.0056153503 0.0009577526 0.088427335 0.006426458
0.024292266 0.00962793 0.0068925777 0.0017538643 -0.006801296 0.012014552 0.037116896 0.0017480388
0.024348803 0.00419076 -0.002308374 -0.027065689 0.002718439 -0.0014523801 -0.0036013892 0.01143657
-0.013109239 -0.0006674318 -0.0041678254 -0.0040144394 -0.023570256 0.0018371765 0.0047757383 -0.006766345
-0.0034817834 0.0015766621 -0.004690733 0.007348062 0.0042367815 0.026418634 0.015634337 0.021867765
0.00019090579 0.014978592 0.0065461695 0.010336001 -0.00765967 0.010460328 -0.0017425998 -0.007872764
0.010478023 0.010059989 0.023886612 6.2993495e-05 0.035653584 -0.015009511 -0.011368593 0.0036612372
-0.0013348802 0.010300934 0.01237721 -0.011323467 -0.0005186573 -0.0042066285 -0.00066620065 -0.00072708924
0.0035272238 0.005445595 0.0021127323 -0.0067068054 0.0030479354 0.04016832 0.0010633749 -0.00012744297
0.005378443 -5.067056e-05 0.02045089 -0.0030282077 -0.014899407 0.010434062 0.0041458444 -0.0011894446
0.007894971 4.7127746e-06 0.00025918012 0.07334464 0.00045252446 -0.0025106599 0.0076352446 -0.00662297
0.028278617 -0.018042762 0.011869133 0.008117455 0.016447494 -0.018915074 0.008315443 -0.014618654
0.0119418865 -0.0061289524 -0.025828846 0.031614773 -0.00277096 0.0019678294 -0.0058976603 -0.0004461986
0.038301576 -0.01594596 -0.005807207 -0.0006719298 -0.009126995 -0.009719975 0.0152191855 0.005855758
0.08244489 0.0016664147 0.012998371 0.003881918 0.010316295 -0.009577259 -0.00048676232 0.0043836227
-0.00015745604 0.03593293 0.005592107 0.001093396 -0.007261843 -0.022098685 -0.0067984723 0.0005291911
-0.0027048136 0.0015554227 -0.0056846547 -0.0022624924 -0.017991524 0.01795758 0.019081296 -0.0050195097
-0.0035729196 -0.009554847 0.021493198 0.017992714 -0.0012699582 0.0016317695 0.0028286546 -0.015920645
-0.0010422823 -0.012338949 0.013443915 0.004711718 0.007242804 0.007326441 0.005265993 -0.005704973
-0.0018416164 -0.0021592483 -0.011349373 -0.01872 0.017947346 0.007846518 0.016672896 0.01640035
0.0013834713 -0.008354401 0.005288164 0.046562493 0.005170118 -0.0074343295 0.03161047 0.0246414
