output/max_fused_embedding_custom_weighted.npy (npy, 827520 bytes, 1 tensors)

array f4 [101, 2048]
000000 ba 4e 46 bc 73 d0 8f 3c b3 5d 0a bb c8 ef 7a bc
       -0.012103731 0.017555451 -0.0021112978 -0.015315957
000010 e3 e9 cc 3b 89 fa 9c 3c ee c0 bf 3c a9 e4 50 3b
       0.0062534674 0.019162433 0.023407426 0.0031874573
000020 29 12 fa 3a b5 38 14 bb 54 49 ed 3b f6 91 64 bc
       0.0019078898 -0.0022616808 0.0072414074 -0.013950815
000030 e9 c1 8d 3b 0d 3f 83 3c 11 ab a6 3a e7 b4 1f 3c
       0.0043260944 0.016021276 0.0012715777 0.00974772
000040 c0 a7 75 3b bb 83 5d 3b 59 31 d1 3a f9 a7 ef bb
       0.003748402 0.0033800441 0.0015960141 -0.007313725
000050 21 79 26 ba 34 29 99 3d 9e 1b b9 38 33 4e 16 3d
       -0.0006350447 0.07478562 8.8266315e-05 0.03669567
000060 4a 2c 8c bc 41 e6 42 ba 09 bb e1 3b 38 20 66 3c
       -0.017110962 -0.0007434823 0.0068887514 0.0140457675
000070 8d ba 01 bc b0 fd 88 bb 92 46 12 3d 86 42 73 3d
       -0.007918012 -0.0041806325 0.035711832 0.059389614
000080 6f 24 c7 3c 43 62 9e 39 de c1 9e bb b9 04 4f ba
       0.024309365 0.0003020932 -0.004844888 -0.0007897127
000090 d6 27 e6 3b 3f de eb bb 74 4d 88 bb 54 52 5f 38
       0.007023792 -0.0071981247 -0.0041596238 5.3244017e-05
0000a0 fd 99 33 bb a2 bb 77 3a 8b 69 c7 3c 9c f8 88 3c
       -0.0027405017 0.0009450262 0.024342319 0.016720109
0000b0 6c b5 7a 3b 19 c5 cf 3a 9c 9c dc bb 94 06 a1 3b
       0.0038255109 0.0015851586 -0.0067325365 0.0049141143
0000c0 3d 57 84 3d bf f6 30 3c 83 e9 51 ba e9 99 a9 3c
       0.06461952 0.010801016 -0.0008007513 0.020703273
0000d0 6f 10 32 bc 5b 42 79 bb 50 e4 61 3b 41 ba 02 3c
       -0.010868176 -0.0038033936 0.003446836 0.007978977
0000e0 df 9b 89 3b 39 35 28 bb f3 ac 55 bc e5 22 32 bb
       0.0041994895 -0.0025666489 -0.013041723 -0.0027181443
0000f0 96 6d 83 3c c6 76 8d bb e9 a2 44 3c 7f 24 12 ba
       0.016043466 -0.0043171374 0.012001731 -0.00055748963
000100 31 bd 60 3c 59 a6 7c bb a0 cf 9b bb 57 ed 54 bb
       0.013716982 -0.00385513 -0.0047549754 -0.0032490098
000110 f3 54 30 bb 6c 3f 11 bc 33 0b 04 3c 30 04 8d 3c
       -0.0026906102 -0.008865219 0.008059311 0.01721391
000120 05 98 4e 3b 7d a4 2e 3d e0 30 b4 3c 66 1a 87 3c
       0.0031523716 0.042637337 0.021995962 0.01649208
000130 29 b4 49 3d f8 c3 4c 3b 3b 3c 9d 3c bc a7 99 bb
       0.04924408 0.0031244736 0.01919376 -0.004689185
000140 c8 10 aa ba 1c b3 c0 3a 11 d7 d5 b9 06 0d ee 3c
       -0.0012974972 0.0014701816 -0.00040786763 0.029058944
000150 9b 73 f3 39 8f 23 de 3a b8 5e b0 3c f9 b0 c1 bb
       0.00046434705 0.0016947853 0.02152954 -0.0059109894
000160 6f 80 93 3b 26 8b ec ba 9a 5e 41 3a 52 10 70 bb
       0.0045013945 -0.001804684 0.00073764625 -0.0036630821
000170 fc 00 ad 3b d3 13 6f 3b 0b 22 a5 3d 3c 50 bf 3b
       0.0052796584 0.0036480322 0.08063134 0.005838422
000180 da a5 cc 3c d1 6b 8a 3c 6e 05 11 3c 6b a3 a2 3b
       0.024981428 0.016897114 0.008851392 0.0049633286
000190 6a 81 cc 39 3d 0e 55 3c a1 11 05 3d 6f 3d 74 3b
       0.00039006333 0.013003883 0.032487515 0.0037268063
0001a0 c8 93 b7 3c f8 21 05 3c ad 16 e2 b6 2c b2 8f bc
       0.022409335 0.008125775 -6.7379647e-06 -0.017541014
0001b0 0b 9b dd 3b 95 bf ab 3a 4e c4 07 bb 57 cc 1c 3c
       0.0067628673 0.001310336 -0.0020716372 0.009570203
0001c0 08 78 eb bb e5 8a d5 37 03 f0 fb ba 64 f8 53 bb
       -0.0071859397 2.5456256e-05 -0.0019221309 -0.0032344097
0001d0 80 d7 fe bb 53 b3 09 3b 7d b6 a6 3b 11 ed 59 bb
       -0.0077771544 0.0021011427 0.0050876723 -0.0033252875
0001e0 44 52 dd 3a 38 de ca 3a 08 14 fa 3a c2 f6 f9 3b
       0.0016885479 0.0015477603 0.0019079456 0.007628293
0001f0 ba e3 a4 3b e4 c9 f6 3c 40 f1 95 3c 60 2d ab 3c
       0.00503203 0.030125566 0.018303514 0.02089566
000200 f1 d3 d9 3a d1 c9 77 3c 88 e7 01 3c 31 7f 4b 3c
       0.001661895 0.0151238 0.0079287365 0.0124204615
000210 7a 4a a3 ba b1 ce 42 3c 66 db b9 ba 6a d1 89 bb
       -0.0012458109 0.011890099 -0.0014179766 -0.0042058723
000220 d2 da 20 3c 76 02 2a 3c d8 a5 da 3c 37 72 17 3b
       0.009817796 0.010376563 0.026690409 0.002310885
000230 9d d1 05 3d 63 00 ca bb c4 42 e7 bb db e5 84 3b
       0.032670606 -0.006164597 -0.0070575196 0.004055721
000240 43 7f 80 ba 4c 3a 2a 3c f8 6f 91 3c a4 31 bb b9
       -0.0009803552 0.010389876 0.017753586 -0.00035704405
000250 1f 8e b5 39 03 c4 f4 3a 61 de 89 b9 13 83 b9 b8
       0.000346289 0.0018674139 -0.00026296361 -8.845902e-05
000260 4f 37 13 3c f3 3e 95 3b fa e9 b7 3b bf 8d 3c bb
       0.008985355 0.0045546233 0.005612609 -0.002877101
000270 67 07 da 3b 61 1f 36 3d fe d1 16 3b 03 d5 6f 39
       0.0066537145 0.04446352 0.0023013349 0.00022872169
000280 52 d5 ec 3b 64 35 04 39 46 15 aa 3c b9 0d 12 bb
       0.007227578 0.0001260839 0.020762097 -0.0022286011
000290 f1 fe dc bb 95 e3 32 3c c2 ef 84 3b 62 9f 0d 3b
       -0.0067442586 0.010918518 0.0040569017 0.0021609892
0002a0 ce 63 67 3c 2e 7f 4d 37 fe be ea 3a f4 99 92 3d
       0.014122916 1.22485635e-05 0.0017909703 0.071582705
0002b0 a0 84 89 3b 67 5d 74 b8 a3 7f e4 3b 91 75 9b ba
       0.0041967183 -5.826112e-05 0.0069732233 -0.0011860599
0002c0 d3 45 09 3d 36 ea 45 bc fc 1f 2a 3c f0 22 02 3c
       0.033513855 -0.012079766 0.010383602 0.0079429
0002d0 fb 28 99 3c c8 c0 21 bc cd 19 09 3c 7b 0c be bb
       0.018696299 -0.009872623 0.008367968 -0.0057998276
0002e0 d2 27 54 3c 42 2e 71 bb e5 82 a9 bc 6e 66 2f 3d
       0.012948947 -0.0036801253 -0.020692298 0.042822294
0002f0 8e 9a bb ba b2 59 ef 3a 56 6b 85 bb 32 e7 f8 3a
       -0.0014313029 0.0018260984 -0.0040716333 0.00189898
000300 ff 5c 24 3d ec 78 49 bc 7a e0 3d bb 3c d8 0b 3a
       0.04012775 -0.012296896 -0.002897291 0.00053346506
000310 c1 c9 e1 bb 8a 5a 22 bb 5c 44 b5 3c be 14 01 3c
       -0.006890506 -0.0024773204 0.022127323 0.0078784805
000320 6a e2 a8 3d 5a 27 99 3b 95 f8 60 3c b9 ad 87 3b
       0.0824631 0.0046738805 0.013731142 0.0041405824
000330 36 77 2d 3c 2d 9c d5 bb c3 4a f4 3a 78 af 9f 3b
       0.010587504 -0.0065188617 0.0018638003 0.0048732124
000340 7e ac 26 38 4c 43 1c 3d 8f 11 9e 3b fc f5 e1 3a
       3.973813e-05 0.038150117 0.0048238705 0.0017239447
000350 3c 23 11 39 12 cd 85 bc 98 bf 9f bb 45 fc f5 39
       0.00013841403 -0.016333137 -0.0048751347 0.00046917997
000360 77 8b 1f 39 4f f2 d1 3b 30 53 69 bb 98 d7 b0 ba
       0.00015215376 0.0064070593 -0.0035602562 -0.0013491986
000370 41 3c 26 bc 99 da bb 3c 00 1b 9b 3c 03 6c 22 bb
       -0.010146202 0.022931384 0.018933773 -0.0024783618
000380 4d 02 75 3a 49 5e 6e bb 28 53 b8 3c fd 04 81 3c
       0.0009346351 -0.0036372116 0.02250059 0.015749449
000390 57 7e d7 3a de d7 b4 3a 4b 7f 26 3b f0 f8 08 bc
       0.001644085 0.0013797244 0.0025405462 -0.008360133
0003a0 66 c0 9c 3a f0 b5 db bb a0 4d 47 3c 97 a9 d8 3b
       0.0011959195 -0.0067050382 0.012164503 0.0066120136
0003b0 5b 23 c8 3b 2f 26 34 3c 37 70 a0 3b 20 6f 3e bb
       0.0061077303 0.010995432 0.0048961896 -0.0029057935
0003c0 0f ee c1 ba b0 19 cb ba e6 35 80 bb 6b a1 49 bc
       -0.0014795678 -0.0015495326 -0.003912675 -0.012306551
0003d0 3c 73 b5 3c 2d 5c 94 3c 93 08 6a 3c 4c c6 a9 3c
       0.022149675 0.01811036 0.014284271 0.020724438
0003e0 56 cb 24 3b dc e5 db ba ca 8e be 3b 06 37 33 3d
       0.0025145612 -0.0016776877 0.0058153616 0.043753646
0003f0 46 60 a6 3b 78 10 f4 ba 0a ea 01 3d ba 81 07 3d
       0.0050773947 -0.0018620631 0.031717338 0.0330827
